01_quantization/lenet.pt (torch, 247899 bytes, 5 tensors)

c1.conv.weight f4 [6, 1, 5, 5]
000000 ad 01 6c bd 94 16 f4 ba c5 f2 0f 3e d4 c4 1a bd
       -0.057618786 -0.0018622451 0.14057453 -0.037785366
000010 44 d6 2e 3e b6 28 e0 3d 10 6e 7f be f5 44 82 be
       0.17073923 0.10945265 -0.2494433 -0.25443235
000020 58 d5 6e be e6 6a 02 be ff ee 0f be f0 f5 7b bd
       -0.23323572 -0.12736091 -0.14056014 -0.06151384
000030 1f 8a f7 bd 6e 3e 0f bb 96 8e b6 bd 5e 6c 57 3e
       -0.120868914 -0.002185728 -0.08913915 0.21037433
000040 0c 0b ee bc e2 c8 1a be 3e 5a af 3d 58 fa 68 3e
       -0.029058002 -0.15115693 0.08562134 0.22751749
000050 c1 ec 67 3e 8d 64 4f 3c 16 cb dc 3e 69 9c f1 3c
       0.22648908 0.0126582505 0.43123692 0.029493527
000060 c9 eb 0f 3e 61 a4 35 3e 68 1a 85 3d bf d6 b5 3d
       0.14054789 0.17738487 0.06499177 0.0887885
000070 fd d2 ae bc d0 8c 08 3e 82 73 8d 3d 64 10 05 be
       -0.021340841 0.13334966 0.06906797 -0.12994534
000080 dd 21 ce 3a 96 3e 1f 3c c3 2c 83 bc 1a 4d 03 3e
       0.0015726645 0.0097195115 -0.016012555 0.1282238
000090 66 d1 8b 3b b6 4d 07 bc 2f a0 8c bd 44 04 9a bb
       0.0042669056 -0.008258274 -0.0686649 -0.0047002155
0000a0 e1 2c e1 bc 45 ff eb bd 92 f2 82 bd e5 75 8f 3c
       -0.02748722 -0.11523298 -0.06393923 0.017512271
0000b0 2b 63 cd b8 fc 77 93 3d fd 60 3f 3e 6b 5c 49 3d
       -9.793633e-05 0.072006196 0.18689342 0.049160402
0000c0 03 7c cc bc e9 ba 1c 3d b0 7a 7d 3c 16 d6 52 3d
       -0.024961477 0.03826419 0.0154711455 0.0514737
0000d0 bd 76 5b 3b 7d 29 05 be 39 b4 7b 3b 12 18 a6 3d
       0.0033487522 -0.13004108 0.0038406982 0.0811006
0000e0 1d df fd bc 1a 36 f6 3c 29 a0 58 be a9 53 65 bd
       -0.030990178 0.030055095 -0.21154846 -0.055987988
0000f0 74 e1 eb 3d 24 fd bf 3d d8 ad b1 bb c7 27 64 be
       0.11517611 0.093744546 -0.005422335 -0.22280799
000100 f2 6a 21 bd 79 d7 47 3d 9a 6e a7 3e d0 63 0f 3e
       -0.03940863 0.048789475 0.3270157 0.14002919
000110 69 f1 08 be d5 06 6b 3a e3 10 41 be 1c 40 cc 3d
       -0.1337334 0.00089655566 -0.18854098 0.099731654
000120 de 11 6f 3e 12 06 c5 3d 78 1f 5d bc 2e 6a f0 3d
       0.2334666 0.096202984 -0.013496272 0.11739002
000130 fb 84 d7 bb 1b db 05 3e 7e 92 1a bd 27 83 ef bd
       -0.006577132 0.13071863 -0.037737362 -0.11694937
000140 ee d6 33 bd 94 02 64 bd 93 9a 98 3c 7b 2d 58 3e
       -0.043906145 -0.05566652 0.018628394 0.211111
000150 d1 d3 ab 3e a3 4b 53 bd 12 20 6a 3e d8 00 47 3e
       0.3356004 -0.051585805 0.22863796 0.19433916
000160 66 2d 4c 3e a6 23 6c 3e 75 be 80 3d f2 cd 93 3c
       0.19939193 0.23060474 0.06286327 0.018042538
000170 8f ce fc bd f7 9e 94 bd 22 65 f3 3c 34 1b 30 be
       -0.123440854 -0.07256883 0.02971131 -0.17197877
000180 cd 72 25 be 00 39 66 be 9c 46 f6 bd fc a1 a6 bd
       -0.16157074 -0.22482681 -0.120251864 -0.08136365
000190 e2 45 94 bc f8 e4 7e 3c d1 e9 61 3b 1d d6 7a bd
       -0.018099729 0.01555752 0.003447164 -0.06123935
0001a0 44 42 1f 3e d7 b4 2a 3c 8d 31 c8 3c 95 fc c6 bd
       0.15552622 0.010419092 0.02443769 -0.09716145
0001b0 3f d3 0d 3d a4 c7 5d 3d 8b 97 a8 bd 79 fe ce 3d
       0.034625288 0.05414547 -0.082320295 0.101071306
0001c0 4d 86 16 bd 00 8e e6 3c 68 28 52 3e 23 94 ed bd
       -0.036749173 0.028143883 0.20523226 -0.116005205
0001d0 64 4f 6d 3d 03 fb 2b be 4c fc 54 3e 47 0e 15 3e
       0.05793704 -0.16794972 0.20799369 0.14556228
0001e0 2b 89 4b 3b 75 6e b6 bd fc b8 dc 3d 58 12 c2 3e
       0.00310571 -0.08907787 0.107774705 0.3790462
0001f0 1c bd 01 be d7 ae 5c 3e 61 90 f5 bd b3 10 00 3e
       -0.12669796 0.21551071 -0.11990429 0.1250637
000200 e5 0a 72 3d 7f c6 83 3c fd 1e 61 3e 3c 28 6e bc
       0.05909242 0.016085861 0.21984477 -0.01453596
000210 7f 6e 68 be b9 fb 5b be ad 1d 3c 3e 15 52 6b bd
       -0.22698401 -0.21482743 0.18370695 -0.057451326
000220 bc ef 57 be ad f4 78 be 19 e5 2c bd 3f ed a2 3e
       -0.21087545 -0.24312086 -0.042210672 0.3182163
000230 e5 bb 61 3d 53 01 91 be 65 d3 8d 3d 12 bc f6 3d
       0.05511083 -0.28321323 0.06925086 0.1204759
000240 72 17 49 3e 43 04 de 3d 3a c5 75 bd 4e 83 8c 3e
       0.1963785 0.108406566 -0.060002543 0.27443928
000250 de 0d ae 3d 25 8f 06 bd
       0.08498739 -0.032851357

c3.conv.weight f4 [16, 6, 5, 5]
000000 ba e6 f9 bd 3d 3d 2a 3d b5 30 af bd 5e 16 02 be
       -0.12202211 0.041562308 -0.08554212 -0.12703845
000010 bb 67 72 3d 0c a2 30 3e a7 de 2d bd 5e f6 30 bd
       0.059180956 0.17249316 -0.042448666 -0.043203704
000020 77 66 ed 3c c1 cc 85 bd 44 1b 04 3e 41 ae 97 be
       0.028979523 -0.06533194 0.12901026 -0.29625133
000030 d5 48 74 bd 1b a9 c1 bd f8 3f 09 bf 75 b6 0a 3e
       -0.05963977 -0.094560824 -0.53613234 0.13546164
000040 05 ef 15 be b0 45 80 bd 3c a7 bd be 0e ac 29 bf
       -0.1464196 -0.06263292 -0.37041652 -0.6627816
000050 c1 c9 44 be 6a e0 2c be ea 74 7e be 38 b2 c8 be
       -0.19217588 -0.16882482 -0.24849287 -0.3919847
000060 b6 50 a5 be bb 6a 17 bd 76 71 0e bd 02 2f 9c bd
       -0.3228814 -0.03696702 -0.034776174 -0.076261535
000070 e7 95 5d be 9d 6b ec bd 39 85 6f 3d 90 46 72 3d
       -0.21639214 -0.11543963 0.05847666 0.059149325
000080 6b 93 7c be 2f 77 0c bd 76 ee 8f bd 10 30 94 3c
       -0.2466561 -0.03429335 -0.07027905 0.018089324
000090 00 d4 04 3e a8 dc 01 3e 2d fa 37 3c b5 c2 62 be
       0.12971497 0.1268183 0.01122908 -0.22144587
0000a0 3c 08 76 3c c7 3f 96 3d d1 71 1a 3d 4d 86 1c 3a
       0.015016612 0.07336383 0.0377062 0.000597094
0000b0 40 9d cf be 46 ea e2 bd 24 0a a6 bd 49 e9 b9 3d
       -0.4054966 -0.1107984 -0.08107403 0.09077699
0000c0 47 59 7b be 70 eb ea be 55 8f 0b 3e 6c 7b 14 3e
       -0.24545775 -0.4588275 0.13628896 0.14500207
0000d0 53 99 75 bd cd 63 ab be b1 72 de 3d e8 22 f5 3d
       -0.059960674 -0.3347458 0.108617194 0.119695485
0000e0 6d d9 85 3e 2e f8 cb be 90 93 ad bd ec 4e 91 bd
       0.26142445 -0.39837784 -0.08475411 -0.07095131
0000f0 51 e0 41 3d a2 29 44 be f2 dd fd be 22 38 ab be
       0.047333065 -0.19156507 -0.49583393 -0.33441263
000100 0a 60 24 bd 8e 85 83 be 56 3e c1 be d7 0a b7 be
       -0.040130652 -0.25687832 -0.3774287 -0.35750458
000110 7d 74 cf bd 5c 28 2b 3e c7 f2 40 be 69 6a 50 be
       -0.1012964 0.16714615 -0.18842612 -0.20353092
000120 64 37 3a be 2d 09 00 3b 49 43 b4 3b 59 ea a1 bd
       -0.18185192 0.001953672 0.005501185 -0.079060264
000130 31 de 9e bd 66 79 5d bc 39 04 e9 3b d7 9c d7 bd
       -0.077572234 -0.013517713 0.007111099 -0.10527962
000140 fc 36 e2 3d 79 1d f7 bd 52 83 9b bc ac d6 98 3d
       0.11045644 -0.12066168 -0.018983517 0.074628204
000150 56 93 e7 3b 9d c5 0f 3e 43 03 35 3d e9 9d 13 3d
       0.0070671244 0.14040227 0.044192564 0.036039267
000160 09 b0 48 3d 67 47 9f bd b6 fb b7 bd 80 4d d3 be
       0.048996005 -0.07777291 -0.08983557 -0.41270065
000170 f4 83 f4 bd 3e 7c 44 3e ed 3f 2d be 88 7e 75 be
       -0.119392306 0.1918802 -0.16918917 -0.23974049
000180 f8 3c 83 be 44 59 b9 bc 0c 9c 80 3e ae 89 ba 3e
       -0.25632453 -0.022625573 0.25119054 0.36433166
000190 7b 33 9d bd 19 f9 be 3d 89 b4 e4 3c 33 a6 c3 bc
       -0.07675835 0.09324855 0.027918117 -0.02388296
0001a0 ae 46 4d 3d e0 04 11 3d b7 ed 88 be cc 79 99 bd
       0.050116234 0.03540504 -0.26743862 -0.07493934
0001b0 4f b0 0a 3e 79 81 16 3e 4e 89 a8 bc 36 7e 38 be
       0.13543819 0.14697827 -0.020573284 -0.18016896
0001c0 b2 b7 9f bd 74 85 a2 3d 14 cf 80 bd d5 b1 5f be
       -0.07798709 0.079356104 -0.06289497 -0.21845181
0001d0 db ab 7e be 26 0b 14 bd 40 10 87 3c 98 b2 34 3e
       -0.24870245 -0.036143444 0.01648724 0.17646253
0001e0 78 87 05 be 35 7f 29 be 5f be 96 bc 0a 59 8f 3d
       -0.13039958 -0.16552432 -0.018401323 0.06999405
0001f0 84 e1 ad bd 4f c6 9e be 3f e8 17 bd ab 8f b7 bd
       -0.08490279 -0.31010672 -0.03708672 -0.08962949
000200 8d db a6 bd f7 d4 50 be ca c5 9e be e0 d8 bb be
       -0.08147345 -0.2039374 -0.31010276 -0.366889
000210 02 b1 20 bd c8 2c 42 3e d8 9e ee 3a 9d b7 e6 be
       -0.039231308 0.18962395 0.0018205298 -0.4506196
000220 49 76 87 3b 9b 48 63 3d ca 33 83 3e bb b3 93 bd
       0.0041339737 0.055489164 0.2562545 -0.07212015
000230 4c c9 81 bd 6a 3f ac bd ac 58 b7 bd 2f b5 cf 3d
       -0.063372225 -0.08410533 -0.0895246 0.1014198
000240 64 c5 8b 3a b6 4c bd bd 82 59 c4 bd ba 6b ca bc
       0.0010663685 -0.09243147 -0.09587385 -0.024709571
000250 21 04 89 3c b2 68 bf be 2b 90 65 3d 33 8b 1a bb
       0.016725602 -0.37384564 0.056045692 -0.0023581504
000260 7c 8c 61 3d 83 bb 9a 3e 43 67 9d 3e 7c 53 5f 3c
       0.055065617 0.30221185 0.30742845 0.013630744
000270 f8 72 cd 3d 38 97 62 3d 24 66 2a 3e d5 14 88 bc
       0.10031694 0.055319995 0.16640526 -0.016611496
000280 9a 37 9b be cf d7 fb be 5e 0f f5 be 60 e5 0c bf
       -0.30315858 -0.49188086 -0.47863287 -0.550375
000290 e7 aa cc be 61 3e d4 bd 42 07 8b bb 28 1c 52 39
       -0.39974138 -0.1036346 -0.0042428086 0.0002003765
0002a0 cc 5e 46 3e d2 53 2c 3d 23 2b d2 be 32 eb 2a be
       0.193721 0.042072125 -0.41048536 -0.16691282
0002b0 d4 8a 2a 3d 14 c9 72 bb 8c 3d 8d bd e8 85 bf be
       0.041636303 -0.0037046121 -0.06896505 -0.3740685
0002c0 97 ce cd bd 7e 8c 06 3e 0e b2 05 3e a6 ff dd bc
       -0.100491695 0.13139531 0.13056204 -0.027099442
0002d0 5f 9f 2f be d6 7d 5f be ba e3 05 be 08 77 2a be
       -0.17150639 -0.21825346 -0.13075152 -0.1664697
0002e0 5e 92 e5 bd 65 76 a1 bc 21 0e 87 be fa e2 7a be
       -0.11209558 -0.019709775 -0.26377967 -0.24500647
0002f0 67 13 24 be b8 f9 ee bd 4a a4 2b 3e b5 9e bd bc
       -0.16023026 -0.11668724 0.1676189 -0.023146966
000300 02 01 0b 3e c2 53 c2 bd 6d 1b 07 bd 9c 9f 14 be
       0.13574603 -0.09488632 -0.03298514 -0.14514011
000310 c4 6c fa 3d 42 30 1c 3e 4e 1f 33 bd 37 d0 7c 3d
       0.12227777 0.15252784 -0.043731026 0.061722007
000320 d3 97 67 bd 99 05 0a 3d 95 44 42 3d 36 96 6f 3d
       -0.056541275 0.033696745 0.047428686 0.05849286
000330 10 51 a9 3d 78 5c 1d 3d a9 6e 82 3e 57 1b 44 3e
       0.082674146 0.038418263 0.25475052 0.19151054
000340 7f b3 66 3e 73 c4 ec 3d b7 aa 4f be bc dd 04 bf
       0.2252941 0.11560907 -0.20279966 -0.5190084
000350 da ee 42 bd 92 08 cd 3c 8e 95 5f be c9 36 86 3e
       -0.047591068 0.0250285 -0.21834394 0.26213673
000360 4a 00 51 3e 02 29 10 be 5a 04 b7 be fe 3d a0 be
       0.20410267 -0.14078143 -0.35745507 -0.31297296
000370 a5 c5 e2 3d ce 41 00 3e 1b 52 ca bd ea f2 2a be
       0.11072854 0.12525102 -0.098789416 -0.16694227
000380 ee df 6b bd 77 c4 ed be 44 9f f4 be 82 fb 98 be
       -0.057586603 -0.46438953 -0.4777776 -0.29879385
000390 b9 7f 05 bf f5 bb 43 bf 88 ca 41 bd 4b 19 33 3e
       -0.52148014 -0.76458675 -0.04731229 0.17490117
0003a0 35 dd 4c 3d 0a 92 ae 3d a8 ec 36 3d 8f 26 97 3d
       0.050015647 0.085239485 0.044659287 0.07380401
0003b0 e5 86 45 3e 22 32 6c 3e 32 b7 58 3e 1e 65 93 bd
       0.1928974 0.23065999 0.21163633 -0.07197021
0003c0 da 82 b3 be 72 1a ab bd 0c 7f 4b 3c 6e ae 73 bd
       -0.3506077 -0.083546534 0.012420427 -0.05949252
0003d0 ef 76 2b be 61 3c a3 3c e2 07 a5 be 1c 16 27 be
       -0.16744588 0.019926252 -0.32232577 -0.16317028
0003e0 93 8e b5 3d ff 54 08 3e b4 77 2e 3d ba 0b 19 be
       0.088650845 0.13313673 0.042594627 -0.1494588
0003f0 5d f0 a1 bd 11 bd dc 3c cc cb 38 3c ff d7 37 bd
       -0.07907174 0.026945623 0.011279058 -0.044883724

c5.conv.weight f4 [120, 16, 5, 5]
000000 4a d7 78 bd 69 8b d3 3e fb 08 c4 3e 54 3b 01 be
       -0.06075219 0.413173 0.38288102 -0.12620288
000010 e8 68 55 3e a9 63 40 3e 90 97 da 3e 41 21 d9 3e
       0.208408 0.18788017 0.42693758 0.42408183
000020 9d 7d a3 3e 97 82 e1 bd 4d 86 81 3d cb 2e 87 3e
       0.31931773 -0.11011236 0.06324444 0.26402888
000030 cc c7 86 3c 89 8c ed 3d 88 f9 17 3e ef 51 f5 bd
       0.016452692 0.115990706 0.14841282 -0.11978518
000040 20 3d 0f be d9 95 50 3e c5 80 b3 3e 7c 09 16 be
       -0.13988161 0.20369662 0.3505918 -0.14652056
000050 1d 34 d3 bd e9 17 8e be de 9c 8b 3e 4a 27 c7 3e
       -0.10312674 -0.27752617 0.27268118 0.38897163
000060 dc 0d cd be 9d b7 37 be 8c d3 b8 be 68 5a ac be
       -0.40049636 -0.17941137 -0.36098897 -0.33662724
000070 61 67 8f 3d 5e 84 55 3e 93 5f 0a bf 0d 9e c1 be
       0.0700214 0.20851275 -0.54052085 -0.37815896
000080 e0 25 b2 be 4f 11 f2 3d 06 1d e6 3e 40 4f bf bc
       -0.3479452 0.118197076 0.44944018 -0.023353219
000090 e4 50 57 3d e3 12 f5 3d ef 83 92 bd 30 23 96 3e
       0.052567378 0.11966493 -0.071540706 0.2932372
0000a0 ea 55 04 be 13 80 71 be b0 58 aa bd 18 75 6c 3d
       -0.12923399 -0.23584013 -0.08317697 0.057728857
0000b0 84 cc eb bd 01 12 42 bd 50 35 3d 3d 93 8e be bd
       -0.11513618 -0.04738045 0.04619342 -0.093045376
0000c0 d6 dd 69 bd ea 9e db bd 96 3d ae 3e a9 c6 b7 3e
       -0.057096325 -0.1072367 0.3403136 0.35893753
0000d0 e8 67 b5 3e 36 08 c1 3d 05 10 6b be 22 c7 ff 3d
       0.35430837 0.09425394 -0.2295533 0.124891534
0000e0 59 c2 e8 3d b9 54 66 3e 5d c9 04 be 28 d4 49 be
       0.11365194 0.22493257 -0.12967439 -0.19709837
0000f0 95 fb d5 bc 89 fa 6f 3e 2a 01 82 bd 45 e2 e2 bd
       -0.02612094 0.23435415 -0.06347878 -0.11078314
000100 f1 a0 80 be 3b 90 05 be a4 9d 8d 3c 6a db 9a 3e
       -0.2512279 -0.13043301 0.017287083 0.30245525
000110 f5 67 00 be 3d c4 49 be 30 95 49 bd 33 e5 65 3e
       -0.12539656 -0.19703765 -0.049214542 0.22450714
000120 a6 bd 34 3e 1e fc e4 3d 6c 28 01 3d b4 39 dd be
       0.1765047 0.111809 0.03153269 -0.43208086
000130 55 5e 81 be d2 73 79 bb 9b 16 b5 3e 30 d2 ef 3e
       -0.25267282 -0.003806342 0.3536881 0.46840048
000140 b1 ea cd 3d 77 07 e2 bb c3 f2 ac be 83 3e 6b be
       0.100545295 -0.0068978625 -0.33778962 -0.22973065
000150 b0 d9 81 3d 20 10 06 bf 8c cf 53 bf 86 22 53 be
       0.06340349 -0.52368355 -0.82738566 -0.20618638
000160 c6 23 45 be c1 50 81 be 09 50 72 bc 8b 6c 4a be
       -0.19251928 -0.25256923 -0.01478959 -0.19767968
000170 7c 64 da bd a4 5e a5 bd bd a7 4e 3e 1e 3a 3f 3e
       -0.10663697 -0.08074692 0.20181175 0.18674514
000180 b1 4c 11 b9 75 ae 78 3e 00 74 52 3b b5 b7 c9 bb
       -0.00013856847 0.242853 0.0032112598 -0.006155933
000190 10 e9 e5 bd f4 f0 0f be fe b1 4a 3e 64 41 3d be
       -0.11226094 -0.1405676 0.19794461 -0.18481976
0001a0 c0 71 6d 3d 87 44 35 be d2 42 b4 3a 1d f1 7a 3e
       0.05796981 -0.17701922 0.0013752824 0.2450604
0001b0 7d 85 e7 be 70 47 a0 be 31 5a dc 3d 93 22 07 bd
       -0.4521903 -0.31304502 0.1075939 -0.032991957
0001c0 3a 3f de be 06 4b af be d8 61 9e be db 06 95 be
       -0.43407613 -0.34236926 -0.30934024 -0.29106793
0001d0 ec d0 75 bd cc 7d ee bd ec 20 31 be 14 76 41 be
       -0.060013697 -0.116450876 -0.17297715 -0.188927
0001e0 96 cd 22 3e 8a c9 8c 3e ec 2c 09 3e 3e 60 a5 be
       0.15898737 0.27497512 0.13396043 -0.3229999
0001f0 4f d6 10 bc 03 53 9e 3c 07 c0 8f 3d 43 79 db bd
       -0.008840158 0.019326692 0.07019048 -0.10716488
000200 c4 30 f5 bd 94 38 d0 3d 4d e5 f5 bd 71 bf 8d 3d
       -0.11972192 0.101670414 -0.12006626 0.0692128
000210 99 0c 0f 3e 48 d8 28 3e 85 69 23 be bd 08 34 3e
       0.1396965 0.16488755 -0.15958221 0.17581458
000220 8d 7c 87 3d 3d d7 8e bd a2 df a6 bd 5c 95 01 be
       0.06615553 -0.06974647 -0.08148123 -0.12654632
000230 2b 3f be bd 92 a8 63 be b9 47 cc bd e7 4b 8d be
       -0.09289392 -0.22232273 -0.099746175 -0.2759697
000240 8d ba 4d be 33 31 08 be 65 5c 94 be 91 1f ca 3c
       -0.20090695 -0.13300018 -0.2897674 0.024673255
000250 73 de d2 bd f9 c9 c3 bc ed 01 80 be f9 da cc bc
       -0.10296335 -0.023900019 -0.2500147 -0.025006758
000260 dd f6 7b bd bf 27 d1 bb d7 2b 98 bd cc b4 f3 3d
       -0.061514724 -0.006382912 -0.07430237 0.11899719
000270 fb 3a 14 3e 6b 48 9c 3e 9b 56 16 bc 3c 57 9a be
       0.14475624 0.30524 -0.009175922 -0.3014468
000280 25 e1 98 3e a9 d5 b1 3d 34 f6 9a 3e 53 7d 25 3e
       0.29859272 0.086833306 0.30265963 0.16161089
000290 37 fb 6c bd 33 80 a2 3d d1 59 3e 3e 74 18 6b 3e
       -0.057856765 0.07934608 0.1858895 0.22958547
0002a0 ad 26 9a bd 9d 1a cb bd af 6a 06 be 1f b5 89 3e
       -0.07526908 -0.099171855 -0.13126634 0.26895997
0002b0 45 0d 45 3d 18 32 d9 3e a8 c6 b7 3e 1c 69 dd be
       0.048108358 0.4242103 0.3589375 -0.43244255
0002c0 48 1c a7 be 61 f9 53 be 47 aa e2 3d 67 bc 1d bd
       -0.32638764 -0.20700599 0.11067634 -0.038509753
0002d0 0e 9b a1 3d 59 ba 32 3e d9 49 31 bd a4 6d a9 3d
       0.078909025 0.17453898 -0.043283317 0.082728654
0002e0 03 58 80 be 70 47 c0 b9 79 bf d1 3b b2 bb 36 3e
       -0.25067148 -0.0003667432 0.006400999 0.17845038
0002f0 f0 cd b1 3d b5 9a 18 be 1c 72 3d 3d 1e aa 26 bc
       0.086818576 -0.14902766 0.0462514 -0.010172395
000300 89 f6 7c be 32 1f 51 be fe 24 8e 3e ba 47 c1 be
       -0.2470342 -0.20422056 0.27762598 -0.37750036
000310 da 1d 93 3c 5c f0 b2 be bb 47 d6 3d d8 2e a8 3e
       0.01795857 -0.34949005 0.104629 0.3284824
000320 3f 1d 80 be b1 71 11 3c 40 71 5c 3e e8 76 c2 bd
       -0.25022313 0.008877204 0.21527576 -0.09495336
000330 31 96 65 bd fe 35 a0 3d 75 a1 8e 3e b3 85 20 3e
       -0.056051437 0.07822798 0.27857557 0.15676002
000340 7c 89 da be 7e 72 d8 3d 0d 4a 9a bd 77 49 95 be
       -0.42683017 0.10568713 -0.07533655 -0.29157612
000350 db be c9 be 35 5e 1f be 7e b5 a3 be 89 87 00 bf
       -0.39403424 -0.15563281 -0.31974405 -0.5020681
000360 5d 43 a7 bd 2c 54 bb be ba ca 8d bd 81 0d c6 3d
       -0.081671454 -0.36587656 -0.06923433 0.096705444
000370 bd 09 00 3e 31 94 49 3e bf 3f 6b 3e d1 0a 77 3c
       0.12503715 0.19685437 0.22973536 0.015078262
000380 f3 54 88 bd c4 b9 5d be 04 3e 54 be f5 fa 70 3e
       -0.06656828 -0.21652895 -0.20726782 0.23533233
000390 a2 4e bc 3d 9d 39 1f 3c 17 b1 15 be 94 16 c7 be
       0.091946855 0.009718326 -0.14618336 -0.38884413
0003a0 b2 b5 6d 3e f1 82 c0 3e f2 29 87 3e 4b c2 78 3e
       0.23213843 0.375999 0.2639919 0.24292867
0003b0 7a 70 32 3e 99 04 a9 3c fc 0e 03 3e 89 ff 28 3e
       0.17425719 0.020632075 0.12798685 0.16503729
0003c0 b3 94 3b 3e c9 d2 6c 3e e2 b8 ea 3c c4 6f 48 3e
       0.18318443 0.23127283 0.028652612 0.19573885
0003d0 87 f0 89 bd 76 72 2f bd 54 95 bb bd 88 d2 34 be
       -0.0673533 -0.042833768 -0.091593415 -0.17658436
0003e0 5d bf 24 be 9d 87 c3 bd b3 61 89 bd 5e f6 83 be
       -0.16088624 -0.095473506 -0.06708088 -0.257739
0003f0 55 65 93 3d bc 19 9e be 8b ce 4d be c1 9d e0 bd
       0.07197062 -0.3087901 -0.20098321 -0.10967589

f6.fc.weight f4 [84, 120]
000000 11 04 06 be 5c ee d6 3c 84 6e 5c 3e 89 bb 86 3c
       -0.13087489 0.026236705 0.21526533 0.016446846
000010 1b 06 08 be e1 e6 a9 bd 64 d7 2e 3d 60 fa d5 3d
       -0.13283579 -0.0829599 0.04268588 0.10448146
000020 a5 fc 22 bd 1f b2 ba 3d 02 09 86 3d 20 f3 e5 3d
       -0.03979172 0.09116005 0.06544687 0.11228013
000030 a0 8f 74 bc 06 58 94 be 8f ec 0a be 8e 3d 8c bd
       -0.014926821 -0.28973407 -0.13566802 -0.06847678
000040 8c bc 5e ba dc 71 37 3e 8a 0b 89 bd c1 a4 23 bf
       -0.00084967236 0.17914528 -0.06691654 -0.6392327
000050 a0 d6 8c bd f0 d5 27 3e b1 5b 47 3e ec 7d 9d be
       -0.06876874 0.16390204 0.19468571 -0.30760133
000060 e2 73 4c bc 16 7f e4 bd c3 5f 87 bd b5 fd 52 bc
       -0.0124788005 -0.11157052 -0.06610062 -0.012877871
000070 01 51 90 be d5 a8 84 3d ed 48 aa 3d 01 60 19 3e
       -0.281868 0.06477515 0.08314691 0.14978029
000080 cc cb 91 3e 17 87 8f 3d e8 32 9d 3c 8e d4 83 bd
       0.28475797 0.07008188 0.019189313 -0.06437026
000090 f6 4e 4c 3e dd ae 10 bd f3 5c 61 3d e3 e6 2f 3d
       0.19951996 -0.035323013 0.055020284 0.0429448
0000a0 48 92 50 39 a8 e9 72 bb 2f 01 0f 3e f9 44 b4 3d
       0.0001989092 -0.003706554 0.13965295 0.08802218
0000b0 d0 c9 4f bd fb e7 65 be 94 bb c3 bd f5 2b 43 3e
       -0.050729573 -0.22451775 -0.09557262 0.19059737
0000c0 16 f4 8f 3d 55 f6 e9 3e b6 0b 10 bd 09 3b 0a 3d
       0.070289776 0.4569575 -0.03516742 0.033747707
0000d0 ac 8a c1 3d 35 30 83 3d 63 ac 47 3e 64 5d d6 3c
       0.09450278 0.06405679 0.19499354 0.026167579
0000e0 26 95 55 3b b4 c4 17 3e 7c 2c a8 3d 54 b9 ff 3b
       0.003259012 0.1482113 0.0821161 0.0078040753
0000f0 9d 49 73 be a8 48 44 3e c0 ef a1 3b cb c1 83 bd
       -0.2375855 0.19168341 0.0049419105 -0.064334475
000100 f8 9d cd be 3f d6 13 be 4c 6e 4c 3e 9d 9d 44 be
       -0.40159583 -0.14437197 0.1996395 -0.1920075
000110 42 3f 86 bc 1f 49 b5 be c8 3c 7c be 67 45 9e bd
       -0.016387586 -0.3540735 -0.24632561 -0.07728081
000120 c8 47 35 3d 2e 4b 0f bc 57 79 61 3e f9 9a 21 3e
       0.04425791 -0.008745952 0.22018944 0.15781774
000130 be d2 41 be ae 94 8d bc b8 47 1e 3d 28 3e 2d 3e
       -0.18928048 -0.01728281 0.038642615 0.16918242
000140 3e 3d 4d 3d e6 ff 7c be 95 f4 9c 3d f7 7a 12 be
       0.050107233 -0.24706993 0.07663838 -0.1430472
000150 56 07 71 3d fc 03 92 3c e4 6b 76 3e 6e ce 90 3d
       0.058844887 0.017824166 0.24064595 0.07070623
000160 ac c0 02 3d da 00 48 3e 5c 6e 73 bd 38 da 1e 3e
       0.031922027 0.19531575 -0.05943142 0.15512931
000170 c2 2e 52 3c c0 57 65 be 0c 05 28 be 95 64 0b 3e
       0.012828531 -0.22396755 -0.16408175 0.13612588
000180 da 53 22 bd 06 e1 eb 3d 07 67 9d 3e ab d1 1a be
       -0.03963075 0.11517529 0.30742666 -0.15119044
000190 e5 ff 14 3d 90 d0 dd bc e3 08 e9 bd 8e d6 8e 3d
       0.036376853 -0.02707699 -0.11378648 0.06974517
0001a0 29 9b 0d 3e d3 3d 0a bd 99 27 db 3c 71 b2 96 3e
       0.1382872 -0.033750366 0.02675228 0.29433015
0001b0 24 74 30 bc 22 b0 43 3d 6e 50 75 be ae dd 8d 3d
       -0.010769878 0.047775395 -0.23956463 0.06927048
0001c0 32 14 6e be 14 b6 cc be db 58 ab be 79 d3 15 bd
       -0.23249891 -0.39982665 -0.3346623 -0.03657863
0001d0 95 66 ef 3d 8d 08 dc bd 9d 87 b4 3e 70 d1 b0 3d
       0.11689488 -0.107438184 0.35259715 0.08633697
0001e0 dc 02 9d bd e8 61 51 3d 7c 41 6c 3d 7c 61 09 3e
       -0.07666561 0.05111876 0.05767964 0.13416094
0001f0 0b 7f 8d be 2c f6 97 3e 5d 66 56 3d 50 d4 ae bd
       -0.2763599 0.29680002 0.052343715 -0.08536589
000200 0e 99 d9 bd 2a df 1b bc 9a 46 1b bd 2a ae f9 bd
       -0.10624896 -0.009513656 -0.037909128 -0.12191422
000210 77 60 4e 3e a3 2b 7a 3e dd 8e d2 3d f3 c3 25 3c
       0.20153986 0.24430709 0.10281155 0.010117519
000220 1a b5 68 bd e9 5e a2 3d 93 c7 82 be 43 72 04 3e
       -0.056813337 0.07928259 -0.25542888 0.12934212
000230 53 cf 4a be cf 64 d1 bd 05 bb 03 3e a4 84 d2 bc
       -0.1980565 -0.10224306 0.12864311 -0.025698014
000240 6e ce fc bd 00 8b fe bc 87 9a f9 3d 08 67 80 3c
       -0.12344061 -0.03107214 0.12187677 0.01567413
000250 d5 3a 30 bf 87 29 6a 3e 41 12 0a 3e 8a fe 70 bd
       -0.6883977 0.22867404 0.13483526 -0.058836497
000260 b1 0f 9f bd 58 24 b7 bd 7a 11 79 3d c7 30 93 bd
       -0.07766665 -0.08942479 0.060807683 -0.07187038
000270 a5 f9 f4 3d 58 76 62 bd 84 65 d4 bd d7 f5 a0 3d
       0.119616784 -0.055288643 -0.10370925 0.0785939
000280 1c ab a8 be ca 8a 07 bf 74 87 3c 3e 8c 2c 80 3d
       -0.32943046 -0.5294615 0.18411046 0.06258497
000290 86 4f 98 3b b3 df 47 3e 66 99 89 3e 6c 73 0d 3e
       0.004648152 0.19518928 0.26874846 0.13813561
0002a0 8d 35 7d 3d c5 06 7e bd a8 84 96 bd e9 28 4e be
       0.061818648 -0.062018175 -0.07349521 -0.20132793
0002b0 23 8e 26 3e 53 e5 54 3b f7 fe 6b 3e 22 8a e6 3c
       0.16265158 0.003248532 0.2304648 0.028142039
0002c0 9f 98 79 bd bc c3 8e bd 85 a0 3c be 50 4c 4e bd
       -0.060936566 -0.06970927 -0.18420608 -0.050365746
0002d0 b7 e9 54 be c0 db 90 3d 49 b2 b6 bd 51 29 c6 3d
       -0.2079228 0.07073164 -0.08920724 0.09675849
0002e0 a4 3a d5 bd 7f de a9 3c 7b 91 a1 be 37 89 88 3e
       -0.104115754 0.020735977 -0.31556305 0.26667187
0002f0 c6 9e 20 bd 04 6f 5c bd d7 ad a7 3e 0f d4 91 3d
       -0.03921392 -0.05381681 0.32749817 0.07120525
000300 c8 35 68 3e 6b 03 06 3e ac d8 24 3e 9f 9b 99 bd
       0.22676766 0.13087241 0.16098279 -0.075003855
000310 c1 f8 af be e2 50 ca bd 5d 10 e8 bd dc 5d f7 3d
       -0.34369472 -0.098787084 -0.11331246 0.12078449
000320 62 95 a1 3d b0 1a 20 3e 17 11 52 be a0 90 11 bd
       0.07889821 0.1563518 -0.20514332 -0.035538316
000330 07 db 1b 3e 40 79 48 be 25 e8 8b be 73 ad 8f 3c
       0.15220271 -0.19577503 -0.2732555 0.017538762
000340 5e bb 00 3d 1f 1c ba 3d ab fd 04 bb 6d 20 b7 3d
       0.031428687 0.09087395 -0.00202928 0.089417316
000350 ca 12 88 bc 80 09 56 3b a5 8d c3 be 21 20 43 be
       -0.016610522 0.003265947 -0.38194004 -0.19055225
000360 cf 4e 55 be 76 11 f3 3c c0 b2 53 bd b8 9a 5c 3e
       -0.20830844 0.029671412 -0.05168414 0.21543396
000370 24 62 da be c9 9c bb 3d d1 e1 93 3c 46 26 04 be
       -0.42653 0.09160764 0.018052014 -0.12905225
000380 5c e1 1d bd e3 c5 76 3e 9a dd 92 bc 65 29 e2 bd
       -0.038544998 0.24098925 -0.017927933 -0.11043052
000390 a5 7d b9 bd 3d 61 32 bd a8 50 1f be 71 45 cd bc
       -0.09057168 -0.043549765 -0.15558112 -0.025057526
0003a0 54 67 31 bc ec 5f cb be 27 d5 05 be 52 b1 e5 3d
       -0.010827858 -0.3972162 -0.13069592 0.11215462
0003b0 05 c5 50 be a0 b5 c5 be 12 62 f6 3b d5 c0 86 be
       -0.20387657 -0.3861513 0.007519015 -0.26318994
0003c0 ae ab 0e be b1 22 30 be 91 b5 f8 3e 05 2a 8b 3d
       -0.13932678 -0.17200734 0.48576024 0.06795124
0003d0 f2 62 5c be 14 7a 6f be 39 14 27 bd 3b b3 a6 3e
       -0.2152212 -0.23386413 -0.04079077 0.32558617
0003e0 a7 59 24 3e d1 6a 34 3d 87 d0 aa be e6 51 48 be
       0.16049825 0.04404718 -0.3336222 -0.19562492
0003f0 0a 2c 71 3e 59 31 4a 3e 10 e2 9d be a3 98 00 3c
       0.23551956 0.19745387 -0.30836535 0.007848891

output.fc.weight f4 [10, 84]
000000 c4 f8 c6 be 79 8c fb 3c 32 6f 9a be 3b 37 2c bf
       -0.38861668 0.030706631 -0.3016296 -0.67271775
000010 8d 38 c5 be 6f 22 88 3d 96 d8 0e 3d ed 40 3c bf
       -0.38519707 0.06647193 0.03487452 -0.7353657
000020 23 93 a6 3d fc a7 12 bc 74 83 d5 be 88 59 37 be
       0.08133533 -0.008951183 -0.41701853 -0.17905247
000030 1f bf eb be af 89 06 bf a2 88 c0 bd 52 e7 ab 3d
       -0.4604425 -0.5255384 -0.09401061 0.0839373
000040 54 5f 9c be 7e 20 0f 3d 38 7a 10 3e a5 08 0c be
       -0.3054148 0.034943096 0.14109123 -0.13675173
000050 e6 6c bb be e2 f7 19 bd 3a e9 8f be 8e 4e e3 bd
       -0.3660652 -0.037589915 -0.28107625 -0.110989675
000060 b5 46 65 bf 56 44 3a bf cb 5e ee 3d 39 0a 14 bf
       -0.89561015 -0.7276052 0.11639174 -0.578281
000070 12 7d 7e be 7b a3 7f 3c ec b2 2c bf 0b 08 5c be
       -0.24852398 0.015602942 -0.67460513 -0.21487443
000080 ce be 62 bf b9 4b f8 be 03 7d de be a4 09 8a be
       -0.88572395 -0.48495272 -0.4345475 -0.2696048
000090 2f 50 ae be ff 84 8d 3d db 42 b9 be f2 28 06 bf
       -0.3404555 0.069101326 -0.3618382 -0.5240623
0000a0 a2 52 58 be e2 2d 57 bd 17 fe 03 be c4 56 ac bd
       -0.21125272 -0.05253399 -0.12889896 -0.08414987
0000b0 dd e6 00 bf d1 e6 14 3d 3b 44 d8 be b8 28 1b bf
       -0.5035227 0.036352936 -0.42239556 -0.60609007
0000c0 76 48 af 3d c4 2b 48 3d 81 be 06 bf 51 b2 86 3c
       0.08558743 0.048869863 -0.52634436 0.01644245
0000d0 62 0e 49 bf 7f eb 08 bf 72 88 83 bc 8b 60 1d bf
       -0.7853757 -0.5348434 -0.016056273 -0.6147544
0000e0 22 75 8f be 30 0f 03 bf e1 31 7b 3d b8 07 e1 bf
       -0.28019053 -0.5119505 0.061326865 -1.758048
0000f0 35 32 31 bd 85 0d ba bd f8 e5 74 bf ce fa 00 bf
       -0.04326077 -0.0908461 -0.95663404 -0.503827
000100 cf ae d2 be ac 71 3e be 45 b3 f1 be cf de 8a be
       -0.41148993 -0.1859805 -0.47207084 -0.27123114
000110 b2 26 0e bf 62 d4 1c be b8 6d d9 be d5 eb ab 3d
       -0.55527794 -0.15315393 -0.4246652 0.08394591
000120 c5 5f ab bf 78 c2 b4 be 9b ad 0d be 48 26 ab 3d
       -1.3388602 -0.35304618 -0.13835756 0.08356911
000130 87 40 1d be ad 5e 92 3d 5a c0 59 3d bc e8 e1 bb
       -0.15356646 0.07146964 0.053161956 -0.006894199
000140 d5 c3 32 3e 61 d8 ad be 95 d2 35 3e 5c 6b 23 bf
       0.17457516 -0.33954147 0.17756112 -0.6383569
000150 71 4d 2c be 97 0c 94 be 6b 6c 1b bf f9 7d 65 bf
       -0.16826417 -0.28915855 -0.6071231 -0.89645344
000160 e9 62 c2 be 4d 98 85 bd 91 91 b9 be b8 3d ce bc
       -0.37966087 -0.0652319 -0.3624387 -0.025175914
000170 6d 5b 9a bd 1a 06 9d bb 54 5b c5 bd 5f ac 8c bd
       -0.07536969 -0.004791987 -0.0963656 -0.06868815
000180 60 f8 3e bd ff 6d 45 3e a8 0d 11 3b c5 69 82 be
       -0.046623588 0.19280241 0.0022133384 -0.2547132
000190 9e ed 11 bf 2b 12 b6 be 0d 04 28 be f7 e0 0f bf
       -0.570032 -0.35560736 -0.16407795 -0.56202644
0001a0 7e 0e d9 bd 5e 12 22 bf 07 2b a6 be 77 6e 3e bd
       -0.10598467 -0.63309276 -0.32454702 -0.046492066
0001b0 e8 90 e9 be 36 be 47 3e a3 35 0b bc 9f 6e ff be
       -0.45618367 0.19506153 -0.008496675 -0.49889085
0001c0 21 6e 1d be a6 01 e9 3c 33 68 96 be a8 58 11 be
       -0.15374042 0.028443169 -0.29376373 -0.14193976
0001d0 7c ac de be fc 39 91 3c e9 a2 f6 bd fd 53 df bd
       -0.4349097 0.017727844 -0.120427914 -0.10904691
0001e0 81 38 80 be 68 a5 72 bf 9d fb 0b bf 4c ce 70 bd
       -0.2504311 -0.9478364 -0.54680806 -0.05879049
0001f0 21 03 11 bf a2 90 bb 3d 6c d7 42 bf 46 ba 18 bf
       -0.566454 0.09158446 -0.7610996 -0.5965923
000200 24 98 c3 be a5 61 ce bd 29 3a fb be 2a e5 77 ba
       -0.38202012 -0.10077218 -0.4906781 -0.00094564504
000210 59 29 9b bc 37 e7 a0 bd be 64 c2 bd 2a ea 2b bf
       -0.018940615 -0.07856601 -0.09491871 -0.6715418
000220 48 79 17 be 71 bf ce be 3a 69 b1 be b3 93 d4 3c
       -0.14792359 -0.40380433 -0.34650594 0.025949335
000230 a0 e0 8f be cb 51 76 be f4 46 06 bd e9 1a 81 3d
       -0.28101063 -0.24054639 -0.03278251 0.06303961
000240 ca 9d c5 be 73 23 12 bf 7a 6c 42 be 05 64 28 bf
       -0.38596946 -0.5708534 -0.18986693 -0.6577762
000250 8c e0 45 be 69 d7 e0 be b7 49 6a be a4 22 a0 bd
       -0.19323939 -0.43914345 -0.22879682 -0.07819107
000260 46 de b2 bd b6 21 4a bf 5d d3 09 bf b4 b3 2b be
       -0.087338015 -0.7895769 -0.5383814 -0.1676777
000270 30 23 81 bc 14 2d 44 bd 19 d9 76 3d 32 44 d4 3c
       -0.015763849 -0.047894552 0.060265634 0.025911424
000280 d6 c8 77 bd c3 18 b0 be c1 01 2c bd 52 06 c2 bd
       -0.060494266 -0.34393892 -0.04199386 -0.09473862
000290 d3 81 1e bf 1b 26 e9 3b fc b8 70 be 09 95 a0 bd
       -0.61916846 0.007115138 -0.23508066 -0.07840926
0002a0 43 ab 36 bf 68 72 42 3a 61 e2 c0 be 83 10 c9 be
       -0.71355075 0.00074175606 -0.37672713 -0.3927041
0002b0 e4 03 bb bd ac f3 74 be 47 ae 82 bd 66 83 85 be
       -0.091316015 -0.23921078 -0.06380897 -0.26076812
0002c0 fa 6e 2d bf ff 1b 84 3d 64 ef 81 be 55 51 16 bf
       -0.6774746 0.06450652 -0.25377953 -0.5871785
0002d0 41 57 ef be 47 3b ec 3b 5d 71 9d 3d 27 88 d1 3d
       -0.46746257 0.007209215 0.07687638 0.10231047
0002e0 d8 78 ec be e8 b1 42 be 8f a5 46 be d8 03 32 3d
       -0.46185946 -0.19013178 -0.19399093 0.043460697
0002f0 36 26 1f be 1f c0 d4 3d 73 16 bf be a2 62 43 3c
       -0.1554192 0.10388207 -0.37321815 0.011925371
000300 58 0d d4 be b8 5c 1e be 68 e7 b8 3c cf 9b 0f 3d
       -0.4141643 -0.15465057 0.02257128 0.0350607
000310 50 7c 87 be e6 80 41 be b7 60 a7 be 12 28 b1 3c
       -0.2646203 -0.18896827 -0.32690975 0.021625552
000320 90 49 54 bd 52 cb 10 bf 01 e3 31 bf 8b 21 e4 be
       -0.051827967 -0.5656024 -0.69487005 -0.4455684
000330 99 5a 44 be 86 20 d0 be 1c 33 a6 be 4f b8 5a be
       -0.19175185 -0.40649813 -0.32460868 -0.2135937
000340 74 04 08 bf d9 cb 64 3a 3e 91 fa be 18 05 20 bf
       -0.53131795 0.00087278854 -0.48938936 -0.6250777
000350 f4 85 06 bd f5 48 52 bf 01 bf 47 bd 9b f7 8c 3d
       -0.03284259 -0.82142574 -0.04876614 0.068831645
000360 5f 03 3e bd 40 a6 03 bd 42 dd d0 3d 4b f6 60 bf
       -0.046389934 -0.03214097 0.101984516 -0.87875813
000370 c7 75 d4 be 19 9e 18 bf d2 5c 49 be 64 3e 5d be
       -0.41496107 -0.5961624 -0.19664314 -0.21605831
000380 43 d5 da bc 1b aa c3 be 44 2e 21 be 31 f9 d7 be
       -0.02671302 -0.38215718 -0.15740305 -0.42182305
000390 8c fb 28 bf c6 5c 28 bf a3 c5 1c 3d c3 f9 35 be
       -0.6600883 -0.6576656 0.03827442 -0.17771058
0003a0 22 05 c7 be 98 37 27 3d c1 1c 03 be dc f7 8e bb
       -0.38871104 0.040824503 -0.12803937 -0.0043630432
0003b0 71 7b fa be 2e 24 81 bb 8a b9 2f bf bd 0e d2 be
       -0.48922303 -0.0039410805 -0.68642485 -0.4102687
0003c0 b5 7a ce bd 58 0b 99 be d8 81 91 3c 66 9c 0b bf
       -0.10081998 -0.29891467 0.01776211 -0.5453552
0003d0 0d ac bd be e1 f0 fc bc 47 78 18 be e7 52 53 bd
       -0.37045327 -0.030876579 -0.14889632 -0.051592734
0003e0 ab 63 15 3d 4d 0f 79 bd dd 55 e9 be df 36 19 bf
       0.036472004 -0.060805608 -0.4557332 -0.5984935
0003f0 dd 62 c7 bb 98 21 1b be 9b e9 3f bc 15 56 8b 3c
       -0.0060847835 -0.15149534 -0.011713411 0.01700882
