01_quantization/lenet_with_bias.pt (torch, 248151 bytes, 6 tensors)

c1.conv.weight f4 [6, 1, 5, 5]
00000000: 09e9 8e3d ce80 adbd c5f8 913b 3771 3cba
00000010: 6dab bdbc 9ee6 2c3d 4da0 56bd 1f72 6fbe
00000020: 42ef 6dbe 8419 003c 1504 61be 279a 49be
00000030: f258 1b3d f58b 00bc 3efa 113e 4f02 2c3d
00000040: 7b38 573d ee0e 553e 0474 d43d 767f 863e
00000050: 77b1 1fbd a82e e33d 9d55 afbd 9f36 013e
00000060: f6b4 8d3d ab80 54bd 8be8 1a3d 777b 583e
00000070: 627b 4f3e 51e9 143d c7f0 8dbe e23e 933e
00000080: dbb2 4d3e a867 723d 6cb3 99be ec1a e53d
00000090: 7bbe a03e 4958 d03c de15 483d 7c3f 3ebe
000000a0: 427b d8bd b7b0 223e af7c f6bb ad0b 50be
000000b0: f783 a9bd a223 fb3d 2266 d4bd 077c 163e
000000c0: bb0f cebd dc99 173d 2394 3a3e ba1d 17bc
000000d0: b4dd eb3c f515 c3bd c0a4 90be f290 adbd
000000e0: 8872 ab3d 944b 0c3e 2ef2 b1be e5fb dabe
000000f0: 4507 4e3d ed57 233d ed86 ad3e 5efe 75bd
00000100: 5045 09bc 5bb0 05bd f5bc bd3d b1d5 a33e
00000110: 416d 6f3e a436 a43e ee1e 46bd 1735 b5bd
00000120: dd7b 89b9 7335 c23d 206f 873d 91eb 133e
00000130: 5d77 99bd 97a4 c63d 362d 78bd 4b69 88bd
00000140: 0268 113e 3269 2dbb c09a 8dbd 3aa2 46bd
00000150: d958 343b ba68 cdbd a4cc 8d3b 1e0b d23d
00000160: dbdf 2abd acaa 003e 71d3 c93d d910 00be
00000170: 2a71 c9bd a917 dfbd f029 89bd 531d 8abd
00000180: 570d 1ebd 45bb 733d 9896 4e3e 289c d83d
00000190: bc3f 9d3c 66cf 863d c820 4b3e b624 633c
000001a0: 7034 503d b61d fd3d 5077 e13d 2c47 4b3e
000001b0: 473b 803e 3b4e 5e3e 247d 23be ce01 3ebc
000001c0: a885 76be e49e 353d 0b98 ed3d fca6 12be
000001d0: b1a9 63be 6ceb 1ebe 1e8a ecbd fa67 9fbc
000001e0: 21a3 20be 542e 8abd f546 14be ab5c e6bd
000001f0: af61 8fbd ef70 d03d 4a8b 323e 335d 753e
00000200: 7b9d 6f3e 5d73 2e3e 0009 d6bd 1536 b7bd
00000210: e8a2 8aba fedf 1abe a94f 9dbd 6a58 10be
00000220: e474 50be 2ba7 b8bd 25d8 06be 252a bbbd
00000230: f90d 633e f8cd 8fbd b605 02be 4d08 aa3d
00000240: ef50 8d3d 1bc6 903e 9637 6fbd 32bb c63d
00000250: ff44 8e3d edde a53c
0.06978042 -0.08471833 0.0044547045 -0.0007188501 -0.023153031 0.04221212 -0.05239897 -0.23383377
-0.23235801 0.007818583 -0.21974213 -0.1968771 0.03792662 -0.007845868 0.14255616 0.04199439
0.0525441 0.20806476 0.10373691 0.2626912 -0.038987603 0.11092883 -0.08561251 0.12618493
0.06919281 -0.05188052 0.037819427 0.21140848 0.2026191 0.03635532 -0.2772276 0.28758913
0.20087759 0.059180886 -0.300197 0.111867756 0.31395325 0.025432723 0.04884898 -0.18578905
-0.105703846 0.15887724 -0.0075221877 -0.20316954 -0.082771234 0.12262656 -0.10371043 0.1469575
-0.10061594 0.037011966 0.18220572 -0.009223396 0.02879224 -0.09525672 -0.28250694 -0.08474912
0.083714545 0.13700706 -0.3475508 -0.42770305 0.0502999 0.039878774 0.33892003 -0.060057037
-0.008378342 -0.03263889 0.09264556 0.3199897 0.23381521 0.32072937 -0.04836934 -0.08848017
-0.00026222962 0.09482851 0.06612992 0.1444533 -0.0749347 0.09699362 -0.06058999 -0.06660708
0.14199832 -0.0026460406 -0.06914282 -0.048494555 0.0027518778 -0.10029741 0.0043273736 0.10256027
-0.04171739 0.12565106 0.098547824 -0.12506427 -0.098360375 -0.10893185 -0.06697452 -0.067438744
-0.03858694 0.059504766 0.20174634 0.105766594 0.01919543 0.06582527 0.19836724 0.013863733
0.05083126 0.123591825 0.11009085 0.19851369 0.25045225 0.2170953 -0.15965706 -0.01159711
-0.24074423 0.044340983 0.116012655 -0.14321512 -0.22232701 -0.15519494 -0.11549781 -0.01945876
-0.15687229 -0.06747118 -0.14480193 -0.11248144 -0.070010535 0.101777904 0.17435947 0.23961334
0.23399918 0.17036195 -0.10450935 -0.08945862 -0.0010577114 -0.15124509 -0.076812096 -0.14096227
-0.2035709 -0.0901626 -0.1316839 -0.09138898 0.22173299 -0.07021707 -0.12697491 0.083023645
0.069002025 0.28276142 -0.05840262 0.097036734 0.06946754 0.0202479

c3.conv.weight f4 [16, 6, 5, 5]
00000000: c4e7 b83d d0b8 593d 05dd 623d 72ba 92bd
00000010: 1d11 87be 04ff ec3d 0537 2bbe 7021 dcbe
00000020: b998 80be d13e 94be 604f 1cbe 05e4 31be
00000030: 16db 683d 1695 e93d 7103 47be c173 dd3c
00000040: b330 4c3e 23c8 163e abde 263e 86aa b3bd
00000050: b74a 023e f4ec ea3d 3ab2 873d c662 5abd
00000060: 9864 54bd 3614 8abe c3db 97bd 26a1 40be
00000070: 81e8 3fbe a6df 88be 5d9a 0cbe 8c41 84ba
00000080: 481a 20be 87f6 b6be 965d 40bd 2d75 2f3c
00000090: 48d2 84bd 683b 8ebe 10ec 6ebd c5fb 853e
000000a0: 94ac 9f3c 1ce9 8dbe e658 ad3d 14b7 633e
000000b0: d475 993e 9adf 66be f154 063e be91 8b3e
000000c0: b915 363e 8497 9b3d 2d0e 74bc 2daa 583e
000000d0: 3374 903e e9ce af3e ec9c 363e 5e7d 143d
000000e0: a445 ab3d dc56 5e3c 4142 2a3e 8f8f 2b3e
000000f0: 1547 acbe ccde 29be 26a8 3abd 75fc 47be
00000100: 5f06 1ebc f593 f5bd 82f3 ac3d ba6a 0cbe
00000110: 48c9 eabe c261 0abe 8a93 26bb c6ab 40be
00000120: a30a 29be e093 91be 19cf ea3b 6a16 8bba
00000130: 7d87 603d 1229 95bd a92f 44be 0b43 89be
00000140: 9f04 51be 6941 5dbd 065a 103d 23d0 50bd
00000150: 8cc1 cabe 4b91 c7ba bee0 b6bd 5bbd fabc
00000160: a6ba 3bbe c5f4 9dbe 2ec2 a43d 048a 0d3e
00000170: 530e 403b a1e2 12bd d86a 293d d338 8cbc
00000180: 65e5 28be fcec 4abd a807 ae3d 8096 493e
00000190: 53bb 8a3b c85d 6abb 8d26 c53d d39a e23d
000001a0: ee31 d23d 8629 b3bd d19e b83d fcec 473e
000001b0: 1ad8 b43e 8a5a 223d 98d6 ad3d 6476 00bd
000001c0: 76a9 06be f850 f1bd fdfd 7ebe d474 39bd
000001d0: a98a 93be c821 d4be 2056 27bd 8166 74bd
000001e0: 40fd 81be 5e42 b63d a3e0 b93d 00d3 053e
000001f0: 534c 82bd 265f 45be 07b5 47be 911f 5fbe
00000200: c720 04bd b0a4 a43e 6981 88bd 8c9f 473e
00000210: a0d3 d13c 384b 97bd 7e66 bebd 504a 3abe
00000220: b97a 233c 2b4b 8b3d 593b 8ebd a453 4bbe
00000230: dd57 39bd 9ce1 203e c489 93be 227d 55be
00000240: 1d1c 28bd f4ce 313c b26f 87be 58ac 79be
00000250: 8e28 89bd e353 c0bd 5d34 3e3e 0f9a b53c
00000260: 2c5c 23be 9504 b33d 673b e1bd 76e2 8bbe
00000270: 4972 f7be 29bc efbc b174 cbbc 83f0 25be
00000280: c79c dbbe cf76 4abe beb4 5bbe 5ad3 9bbe
00000290: 7e8d c1be 16ab 3cbe 6aaf 91bd 0aba f1bc
000002a0: f445 a4be 021a d2be 8a4d 5c3d db1d 8c3d
000002b0: dceb d5bc d130 6ebe 6d72 cbbe c9ee 5f3e
000002c0: c6a7 973e 33a4 503e afc7 f43c cb08 32be
000002d0: 244b c43e f3ae 3e3e b77d a2bc a6e7 74bd
000002e0: e583 6cbc 2eb0 323d 146a 09be 9e07 abbe
000002f0: 4351 d9bd 1336 5cbe b77f 4cbe a1e5 20be
00000300: 2ad5 b8be 1b58 0fbf 2e34 efbe f863 05be
00000310: 5772 b63d 06db 7abe 5f42 74be a372 c5be
00000320: a6e0 fbbd 5de8 d23d ee97 813d 0674 9f3a
00000330: 8094 ccbb 1e46 a6be 0a83 83bd b62f 08be
00000340: bb49 02bd e7a9 15bd 99cd f83c 444d df3d
00000350: d618 4ebe c90d 87be 538d e9be 2e35 b83d
00000360: 34f3 1e3d 5875 0cbd 4278 93be 393e 24bf
00000370: 7db1 213e 97ff bb3d df17 1f3d 43c0 34bd
00000380: a9d0 92be 308e 6abe 9bab c03c 595c 2a3e
00000390: 59a7 923d eb79 07be ad8a 933c fd0f 203e
000003a0: ec55 193e d19c 9c3d 5c73 e7bc 896e 423d
000003b0: 25d7 8fbc 0eaa f03c 44b4 c0bd 681c 0e3c
000003c0: 503c 05be 5521 9bbc af6c ffbc c7d9 acbd
000003d0: b924 f8bd 7bc2 f6bc 1b7f 0dbd f3db a63c
000003e0: f518 24be 9624 1bbe c83f 173d 6312 013e
000003f0: 0e2e 0d3e 72aa a43c df25 febb 84e2 883d
0.09028581 0.053154767 0.055386562 -0.07164468 -0.26380244 0.11572078 -0.16720207 -0.4299426
-0.25116518 -0.28954175 -0.15264654 -0.17372139 0.05684956 0.11405389 -0.19434907 0.027032735
0.19940452 0.14724784 0.16295879 -0.08772759 0.12723814 0.114709765 0.06625791 -0.053316854
-0.051853746 -0.26968545 -0.07414963 -0.18811473 -0.18741037 -0.2673313 -0.1373076 -0.0010090335
-0.15635026 -0.3573496 -0.04696425 0.010709089 -0.064854205 -0.27779698 -0.058330595 0.26168647
0.019491471 -0.2771691 0.08464222 0.22237808 0.29972708 -0.22546235 0.1311834 0.2725963
0.17781724 0.07597259 -0.014895958 0.21158667 0.28213653 0.34337547 0.17833298 0.036252372
0.08362892 0.013570514 0.16626836 0.16753982 -0.3364798 -0.16588897 -0.045570515 -0.19529898
-0.009645074 -0.11991111 0.08444883 -0.13712588 -0.4585669 -0.13513854 -0.002541753 -0.18815526
-0.16507964 -0.28433132 0.0071658012 -0.0010611538 0.05481671 -0.07283224 -0.19158806 -0.26808962
-0.20411919 -0.054017458 0.035242103 -0.050979745 -0.3960079 -0.0015225796 -0.08929585 -0.03060787
-0.1833292 -0.30850807 0.08044849 0.1382218 0.0029305413 -0.03586066 0.04136166 -0.01711694
-0.16493757 -0.049542412 0.08497554 0.19686317 0.0042337566 -0.0035761464 0.096264936 0.110646866
0.102634296 -0.08748154 0.09014667 0.19523996 0.35321122 0.039637126 0.08488196 -0.031362906
-0.13150582 -0.11783022 -0.24901576 -0.04527743 -0.28816727 -0.41432023 -0.04085362 -0.059668068
-0.25388527 0.08899377 0.09076049 0.13068771 -0.06362214 -0.19274577 -0.1950265 -0.21789385
-0.03225782 0.32156897 -0.06665308 0.19494456 0.025613606 -0.07387394 -0.092968926 -0.1819241
0.00997799 0.068014465 -0.069449134 -0.19856125 -0.04524981 0.15711063 -0.28816044 -0.20848516
-0.041042436 0.010852564 -0.26452404 -0.2438215 -0.06697188 -0.09391 0.18574663 0.022168187
-0.1595313 0.08741108 -0.10997658 -0.27321213 -0.4832938 -0.029264526 -0.024835916 -0.16205029
-0.4289305 -0.19771884 -0.21455666 -0.30434686 -0.37803262 -0.18424639 -0.07113536 -0.029507656
-0.3208462 -0.41035467 0.053784885 0.06841632 -0.026113443 -0.2326081 -0.39735737 0.21868433
0.29620188 0.20375137 0.029880373 -0.17386167 0.38338578 0.18621425 -0.019835336 -0.05979123
-0.014435743 0.04362505 -0.13419372 -0.3340425 -0.106112026 -0.21505003 -0.19970594 -0.15712596
-0.3610013 -0.55993813 -0.46719497 -0.13026416 0.08908527 -0.24497613 -0.23853444 -0.38564023
-0.12298708 0.10298226 0.063278064 0.0012165315 -0.0062432885 -0.3247537 -0.06421478 -0.1329945
-0.031808596 -0.036538985 0.030371474 0.10903409 -0.20126662 -0.26377705 -0.45615634 0.08994518
0.038806155 -0.034291595 -0.28802687 -0.64157444 0.15790363 0.09179609 0.038841125 -0.044128668
-0.2867482 -0.22905803 0.023519328 0.1663679 0.07160825 -0.13230102 0.018010462 0.15631099
0.14974183 0.07647098 -0.02825325 0.047468696 -0.017558644 0.029377963 -0.09409383 0.008673765
-0.13011289 -0.018936792 -0.031179754 -0.08439975 -0.12116379 -0.030122032 -0.034545045 0.020368552
-0.16025145 -0.15150675 0.03692606 0.1260467 0.137871 0.020100806 -0.0077559794 0.066838294

c5.conv.weight f4 [120, 16, 5, 5]
00000000: 0578 9d3c a501 a73e 3a8e a83e f470 453e
00000010: 1b46 603d afa0 84be 1805 20be ae95 9b3d
00000020: 0dd0 ea3c cc09 7b3e 7321 5dbe fb97 b5bd
00000030: 48aa 8f3d 7826 24be 2536 e8bc 15f2 a9be
00000040: d886 f1bd cf75 8f3d c76e 0ebe c743 8bbc
00000050: fc5f a5be 83f8 d3be 2bf2 84bd 9504 9bbc
00000060: 8fa3 843e 8ab9 033b b05b b13e 03f9 903e
00000070: 0074 0c3e 068d 113e 1556 65bc 7779 023e
00000080: 52d6 5f3c 7408 f53d bf15 04be 88f4 203e
00000090: c1fb 4dbd 6e46 ecba 4763 153e 51e9 1bbe
000000a0: d138 92bd 83fd 44be 7e18 69be d795 0abd
000000b0: 9b69 913d 6678 9e3d 24d7 7d3e 0c43 47bd
000000c0: 7818 5bbd c349 a43d 1386 b5bd b6db 8dbd
000000d0: b119 303d 0e71 3e3e 79f2 0dbd 44b6 0a3d
000000e0: 556c 99bd e94a d1bd d0b4 a53c 0a42 23bc
000000f0: a7b1 4e3d f65c 8ebd 5445 7abe dfe7 c5bd
00000100: eeb6 a33d eac5 833e 27dd 3ebc fd92 c0be
00000110: 78c2 a5be 9b51 593e 6feb 423e c5ae c6bd
00000120: e48c 16be 65c7 7bbe 590a 1a3e 88b2 db3d
00000130: e441 4f3e 6fdf ad3c 2eeb 67bc 6b90 9ebd
00000140: 3cd0 33be 2aaa 4abd c8b7 8cbd 28e7 d43d
00000150: c0e0 b73d a114 c9bd d8b0 25be 18ed f6bd
00000160: 5c0a 7e3d ac48 883e e35d 05be 3fb2 65be
00000170: 1c76 4bbd cc1d d1bd 0c8b 013e d24c 41be
00000180: 4dcd d4be 16a8 7cbe 2604 b9bd f3e2 443e
00000190: 52ed f4bd 2c12 40bc 7bf2 96bd 67df e4b9
000001a0: f13b 23bd b388 94be cdbf 68bc f704 62bd
000001b0: c767 7bbe ab01 d1bd 7b26 adbe 6a98 29be
000001c0: 6b62 08be 3e04 bb3d 4667 183d 5290 97bd
000001d0: 98d6 653d 6c46 463d a6b7 c0bb cb09 3b3c
000001e0: 9dd2 4a3e f6f8 dc3d db21 02be b64d 14be
000001f0: f9ca c0be 8475 eb3c 17ea 633d b67e fd3c
00000200: ac33 053d ebaf 17be eb04 a3bd 76e6 16be
00000210: 97eb 143d a28d c2bc 4fcd ce3d 18d2 1bbd
00000220: a460 513d a6bf 8f3d 781f b73d 757a 5d3d
00000230: e95e e1bd de55 413e a39f adbd 7f68 babd
00000240: eb57 4cbd 497c 9cbc d289 033e fdee dbbd
00000250: 3943 3fbe 5853 023d b67f 1f3b 7440 1bbe
00000260: c704 0b3d 35d2 c6bd 1b3c 03be eee5 063e
00000270: 6cb9 88be 6cca 703c 36bd fdbc 1ff3 1c3d
00000280: 344b 8ebe 5f2d 9cbe 5b00 623e afaa 673d
00000290: d471 2d3e bf6e 913d d14e 4bbe e0a1 ddbc
000002a0: 1726 5bbd 1478 983d acb2 b83b 7904 b9be
000002b0: 7cc4 98be d748 96be aa88 3abe d0dd b23c
000002c0: 2554 093d 3fca 633d 8bff 2fbe 2366 7abe
000002d0: ff8a e8bd 7fdc 89bd 6196 cfbc bbf7 c6bd
000002e0: 81bf 183e 8fce 22be 42b6 92bd bd68 81bd
000002f0: fc4f d0bd 769a cf3d b22f f43d 914d 62bd
00000300: 6fd3 4abd 9474 0fbe 2f81 ec3c 445b 46be
00000310: c5ab 96bd 1cd1 34bd 0ac0 13be c8c2 dbbc
00000320: 35aa f23d 0602 bc3d 218d a53d 67bc c9bc
00000330: 204e 5e3d c074 f2ba 4b63 ddbc e041 2e3d
00000340: 0044 013e 591b 90bd 1f4a 383e b636 82bd
00000350: 8e3b 76bd 10ec 123d 4107 8bbc b461 a7be
00000360: 185b 24be 1266 1bbe 8fde 703e c255 863e
00000370: 9ef7 6bbd 6a0a 2d3e a11f 443e 03a6 1d3d
00000380: 4cee 403d 67ad d2bd 9ea0 febd 8b50 53bd
00000390: e5e5 693d 5436 0abe f9d8 903d b2ce eb3d
000003a0: 46ff 853d 60dc 43be cf5a 21be 8f11 9c3d
000003b0: 2d99 24bc b41d fdbd 0e18 aabd 2497 8f3d
000003c0: 1ed0 ffbd bc6f 0ebe a92a 32bd 0404 0e3b
000003d0: 340b 1c3c 6b05 4d3c 9356 9e3d 7ce0 17bd
000003e0: 6272 f3bd 2f3f eb3d 0b28 3ebe d534 1b39
000003f0: 6e14 99bc 6f4d aa3c d401 f9bd caad a9bd
0.019222269 0.32618442 0.3292101 0.1928137 0.054754358 -0.25903842 -0.15626943 0.075969085
0.02866366 0.24515456 -0.21594791 -0.088668786 0.070149004 -0.160303 -0.02834613 -0.33192506
-0.117932975 0.07004892 -0.13909446 -0.017000092 -0.32299793 -0.41400537 -0.064915024 -0.018923083
0.25906035 0.0020099604 0.34640265 0.2831498 0.13716125 0.14213952 -0.013997574 0.12741648
0.013661938 0.11964503 -0.1289892 0.15718281 -0.05028892 -0.0018026361 0.14588653 -0.15225722
-0.07139743 -0.19237332 -0.2276325 -0.033834305 0.07100221 0.07737808 0.24789101 -0.048647925
-0.053490132 0.080218814 -0.08863463 -0.06926672 0.04299325 0.18597814 -0.034655068 0.03386523
-0.07491366 -0.10219366 0.02022782 -0.009964475 0.05046239 -0.06951325 -0.24440509 -0.096633665
0.079938754 0.25736934 -0.0116494065 -0.37612143 -0.3237493 0.21222536 0.19035123 -0.097013034
-0.14702183 -0.24587782 0.1504301 0.107274115 0.20239979 0.021224706 -0.014155192 -0.07742389
-0.17559904 -0.049478687 -0.06870991 0.10395652 0.089784145 -0.09818388 -0.16180742 -0.12056941
0.0620216 0.26617944 -0.13024096 -0.22431277 -0.049673185 -0.102107614 0.12650698 -0.18876961
-0.41562882 -0.24673495 -0.090339944 0.192272 -0.11959328 -0.0117230825 -0.07370468 -0.00043653997
-0.039852086 -0.29010543 -0.014205885 -0.055180516 -0.24551307 -0.10205396 -0.3381842 -0.16562048
-0.13318793 0.091316685 0.037207864 -0.07400574 0.056112856 0.048407003 -0.0058812676 0.011415909
0.19806905 0.10789673 -0.12708227 -0.1448277 -0.37654856 0.02874256 0.055643167 0.03094421
0.03251998 -0.14813201 -0.079599224 -0.14736351 0.03635749 -0.023749176 0.10097753 -0.038042158
0.051117554 0.07018976 0.08941549 0.054071862 -0.11004431 0.18880412 -0.08477714 -0.09101962
-0.049888533 -0.019102233 0.12845543 -0.10738943 -0.18677987 0.031817764 0.0024337596 -0.15161306
0.033940103 -0.097080626 -0.12815897 0.13173649 -0.26703966 0.014696699 -0.030974012 0.038317796
-0.2779175 -0.30503365 0.22070448 0.05655926 0.16937953 0.07101201 -0.19854285 -0.027054727
-0.053503122 0.07444778 0.0056365337 -0.36136225 -0.29837406 -0.29352447 -0.18216196 0.021834284
0.033527512 0.0556128 -0.17187326 -0.24453025 -0.113546364 -0.067315094 -0.025340261 -0.097152196
0.14916803 -0.15899108 -0.07163669 -0.06318805 -0.10171506 0.10136883 0.1192316 -0.055249754
-0.049518045 -0.14009315 0.028870193 -0.19370753 -0.07356981 -0.044144735 -0.14428726 -0.026826277
0.11848871 0.091800734 0.08083559 -0.02462597 0.054273725 -0.0018497929 -0.027024886 0.042543292
0.12623596 -0.07036466 0.17997025 -0.063580915 -0.06011539 0.035869658 -0.016971232 -0.3269173
-0.16050375 -0.15175655 0.235224 0.26237303 -0.057609193 0.16898504 0.1915269 0.0384884
0.047102258 -0.1028698 -0.12432979 -0.051590484 0.05710401 -0.13497287 0.07072634 0.115140334
0.0654283 -0.19127035 -0.15757297 0.076205365 -0.010046286 -0.12359181 -0.08305369 0.0701125
-0.12490867 -0.13909811 -0.043497715 0.0021669874 0.009524155 0.012513499 0.077313565 -0.03707932
-0.11887051 0.11486661 -0.18569963 0.00014801633 -0.0186865 0.020788876 -0.12158552 -0.08285101

f6.fc.weight f4 [84, 120]
00000000: d87e f3bc ddaa 343d 6719 043d bab7 8f3b
00000010: 324d 97be 290b 58be 5269 2fbe 2db5 4bbd
00000020: ca7d 71bc bf4f 2dbe d8a6 f3bd 7b99 d13d
00000030: 44d2 1e3d ceab a4bd 554a 263e 7bbd 3d3d
00000040: 2a00 093d 77d9 7f3d 443c 7fbd 071e 51be
00000050: 1774 293e 9a78 1cbb d8d2 d03c 807c dbbe
00000060: 70f9 633e 7bdc 58bd 8388 8dbe bd62 f23d
00000070: 2df6 873e 0758 313d 0051 b7be 006f 8fbc
00000080: 58e4 3d3c e978 5a3d a6b3 86be e0fa aabc
00000090: 2cba 45be b962 fc3c 40be 003d a94a 8ebd
000000a0: 610f ac3d 2e47 613e 7dd1 7d3c 283a 8e3c
000000b0: fe95 8abd fd8c b4bd d13d 28be f685 ad3c
000000c0: 74dd 5b3e c80e 363d a48e 6cbd b70d 01be
000000d0: 0cd1 ae3d fdcb 72bd 0597 403e 6a09 d43d
000000e0: e15f 18be 57b9 36bc 5530 083e 17f6 4a3d
000000f0: 45f9 db3d b04f 6e3c 034c 6dbd 97a1 623e
00000100: bff2 383e 5176 8ebd 4ae8 db3d 1bc4 46bd
00000110: cbd6 783e a709 29bc f2d2 b43a d98e 1d3e
00000120: 00a0 dc3d 401d 193e 4ebd 3d3d af5b 30bd
00000130: 5142 92be f465 933d 4aff 4dbd 484b 1b3e
00000140: cc3a dcbc fdab b7be 2f57 d4bc 66b6 b53d
00000150: f44f fbbd 929b f939 e7c0 8fbc da4a 41be
00000160: ff3c bebd e658 68bd 8e14 7d3d 9f41 c5be
00000170: ab88 23bd 7790 23be 317c 76bd 8c6a 32be
00000180: 24fe f03d 8595 2f3e 5eba 733e 0255 173e
00000190: a13a 0b3d 26c9 e73d 4b91 903d c7cc 5ebe
000001a0: f396 b13b 4585 213d dbc5 0b3c f21d 0c3c
000001b0: 341d 7dbe d364 46be 7a5f 7fbe 9da7 36bd
000001c0: faef d5bd 27c5 92bd f020 6abd d873 983d
000001d0: ef5d c23d ff8b 353c 61e8 90bd 81ff cebe
000001e0: 736e 5ebc a0b5 23bc afa9 0abe 781e 66bd
000001f0: 9f4f 67be 879f abbe 6b05 ef3d 9094 3bbe
00000200: f293 2f3d 90fe 06be 03d5 89be 6642 f5bb
00000210: 0554 0dbd c430 3bbe 3b57 54be 3354 7c3d
00000220: 39e9 243b 6b74 da3d 55c3 1d3c 68c2 0a3c
00000230: a53d 7e3d 01a4 843e b1f7 a13b e440 8cbe
00000240: e143 203e 7cbe febb f04d f73b c217 223d
00000250: fdb9 da3c 26b9 8f3d 1104 07be 2507 893d
00000260: 27c8 e2bd 6210 803e 83e5 523d 0473 713e
00000270: f114 dd3b f3f4 aa3c f93d 89bd cfec 44bd
00000280: 6578 36be f897 e73d 0268 d53d 1cc8 0cbc
00000290: 6351 883d 1ff6 823d a8db 22bd 21c3 66bd
000002a0: 59c4 4dbe 1f0f 97be 650c a0be 4b9c 18bd
000002b0: d3e6 bb3a 6e8a 6abe 8e36 753d 344f 23be
000002c0: 25cd 4ebe 9f32 82bd bd80 1fbd dba9 1c3e
000002d0: 11e9 b1bd 36cf ebbd c2a8 2a3d 7937 88bd
000002e0: 2a40 83be 430e 06be 2cac b4bd 8580 ae3d
000002f0: 0342 4e3d db9f a33c 025d 1e3e fec7 e63d
00000300: 2658 5cbe faff 1cbe 9f7f ba3d 2428 90bb
00000310: abb1 80be 038a b3bd bd52 8bbd 39ab 92bd
00000320: f7b2 2bbe ccd4 3fbe 8e4f 383c 99a7 25be
00000330: 7ab7 b93d 6385 93ba f2e1 573d 32bc 02bd
00000340: 742c b2be 06fb 81be a827 523d 97b9 debc
00000350: fa88 053d 5b56 f5bd f7ec 553d 6fc5 90be
00000360: 34b9 6d3d 89b0 fdbc 091e 8abe f004 ff3d
00000370: 0284 44bc 72d4 d0bc 6bf1 99bd 1d9c 13be
00000380: 2fdd adbd e207 06be 0465 dd3d 8f6f 003d
00000390: d1a2 9dbd df03 fabd 240b da3d 7a9c 733a
000003a0: 7c72 003d c54e 493d 7f0f 68bd 153e 273d
000003b0: ded2 12be e7ad 1fbe a207 da3c b6c4 09be
000003c0: 4bde 0bbe 3170 c23c 4710 cb3d 90af 663c
000003d0: f58b 9bbe b17e 333e 965f d93c 46eb 92be
000003e0: 630f 913e 3c6e a3bc 1f7e adbd 5d93 133d
000003f0: c45c 00bc 7f3a 7bbd fd7d 353e 538b 37bd
-0.02972357 0.04410826 0.032250788 0.0043859156 -0.29551083 -0.21098007 -0.1713002 -0.04973333
-0.014739463 -0.16924952 -0.11897057 0.10234352 0.038774744 -0.08040582 0.16239293 0.04632328
0.033447422 0.06246325 -0.062313333 -0.20421611 0.16548191 -0.0023875595 0.025491163 -0.42868423
0.22263122 -0.05294464 -0.27643213 0.11835239 0.26555005 0.04329684 -0.35803986 -0.017508984
0.011590086 0.053337965 -0.26308936 -0.02087158 -0.193093 0.030808793 0.031431437 -0.06947834
0.08401371 0.21999809 0.01549184 0.017361715 -0.0676689 -0.08815954 -0.16429831 0.021182042
0.21471196 0.04444769 -0.05775322 -0.12602888 0.08535966 -0.05927657 0.1880761 0.10353358
-0.14880325 -0.011152587 0.13299687 0.049551096 0.10740904 0.014545366 -0.05793382 0.22131954
0.1806135 -0.06956161 0.10737665 -0.048526864 0.24300687 -0.010317243 0.0013795777 0.15386523
0.10772705 0.14952564 0.046323113 -0.043056186 -0.2856622 0.071971804 -0.05029229 0.15165436
-0.026883505 -0.35873404 -0.025920479 0.0887268 -0.12271109 0.0004760889 -0.017548038 -0.1887621
-0.09288978 -0.056725405 0.06178718 -0.38526627 -0.03992526 -0.15973078 -0.060177032 -0.17423457
0.117672235 0.17146881 0.23801562 0.14778522 0.03399146 0.11317663 0.070589624 -0.21757804
0.005419606 0.039433736 0.008531059 0.008552061 -0.24718171 -0.19374399 -0.24938765 -0.044593442
-0.104461625 -0.0716651 -0.057160318 0.074439704 0.09490573 0.011080741 -0.07075573 -0.4042931
-0.013576138 -0.009992033 -0.13541292 -0.0561814 -0.22588967 -0.33520147 0.11670955 -0.18318391
0.0428657 -0.13183045 -0.26920328 -0.007484722 -0.034503955 -0.18280321 -0.20736401 0.061603736
0.0025163426 0.10666736 0.00962909 0.008469202 0.062070508 0.25906375 0.004942857 -0.27393258
0.15650894 -0.0077741724 0.0075471327 0.03957344 0.026700014 0.07017736 -0.13185145 0.06690816
-0.11073332 0.250125 0.05148841 0.23579031 0.006746881 0.020868754 -0.067012735 -0.0480774
-0.17819364 0.113082826 0.104202285 -0.008592632 0.06656148 0.063946 -0.03976026 -0.056338433
-0.20094432 -0.29503724 -0.31259456 -0.037258428 0.0014335759 -0.22904369 0.05986648 -0.15948182
-0.20195444 -0.063573115 -0.038941134 0.1529917 -0.08687032 -0.11514132 0.041664846 -0.066512056
-0.2563489 -0.13091378 -0.08821902 0.08520607 0.050355922 0.019973686 0.15465167 0.11268614
-0.21518001 -0.15332022 0.09106373 -0.0043993164 -0.2513555 -0.08766558 -0.068028904 -0.071615644
-0.16767488 -0.1873352 0.011249436 -0.16177215 0.090681985 -0.0011254962 0.052705713 -0.03191776
-0.3479954 -0.25386828 0.05130735 -0.027188106 0.032601334 -0.119793616 0.05222794 -0.2827563
0.05803795 -0.030967968 -0.2697604 0.12452114 -0.011994364 -0.025491927 -0.0751675 -0.14415021
-0.08489453 -0.13088945 0.10810283 0.03135639 -0.076970704 -0.122077696 0.10646656 0.0009293031
0.03135918 0.049147386 -0.056655403 0.04083069 -0.14338252 -0.15593682 0.026614968 -0.13453946
-0.13659017 0.023735138 0.09915214 0.014079943 -0.30380216 0.17528798 0.026534837 -0.28695124
0.28332052 -0.019950025 -0.08471321 0.03602921 -0.007834617 -0.061335083 0.17723842 -0.044810604

output.fc.weight f4 [10, 84]
00000000: eb94 4dbe 0973 003e 8d1b c33d eb5a bf3d
00000010: e814 9e3d a904 26be 85ee b7be 2b57 193d
00000020: 937e 0abf c2ff 5abe 4851 053d f92f a6bd
00000030: 7855 54be 6687 4c3b a4fb 2ebe 5505 1bbf
00000040: bd11 0dbe c01c 20be fcaf 30bd fd41 fbbd
00000050: 60d4 34be 0fc0 eebe f567 01bf bb26 203d
00000060: 8b4f 073e 9e9d dbbe 781b a7be 6c14 0fbe
00000070: f29f 40be 0a08 b8be 8271 b93d d094 10bd
00000080: b320 c7be 8493 e2be 0541 1ebd 0b64 b3be
00000090: f8cc c1be e0c1 ffbd fede 39be 8179 e0be
000000a0: dd02 a3bd b102 ce3d e1ba 763d f014 373e
000000b0: 7bec 29be 6901 febc 6b39 f33c cbff b4bd
000000c0: 7d13 54bf 7536 123d 6b8a f0bd a1c6 0abe
000000d0: 4330 ecbe fe0e 16bf f953 11bd dda3 b3be
000000e0: ca06 47bc a495 dcbd 92e0 dc3c cc53 72bd
000000f0: 1348 a4be 3276 55bd ceb2 7cbb 6858 3cbe
00000100: 68b8 bfbd b6cc dfbe 6874 113e 0139 d83c
00000110: 389c c7be 708c cebe fbe3 f43d b6df 09bf
00000120: f020 e13c 923b 0cbe 12f4 d1be 8451 9dbe
00000130: 6193 c0be 9906 503d 0c8b b6be 3246 07bd
00000140: 942d 42be 09b4 d0bd 2163 473d ffc6 5abe
00000150: 338f e83c 3e75 75be 816a e7be 55e9 703c
00000160: 73b3 82be 7e8b 4dbe cf21 8e3c 8b85 a9be
00000170: d0f7 bfbd 6554 adbe d07d fc3b 2ded 98be
00000180: 114d 1bbe 3409 ac3d dee3 9bbe f6a2 023e
00000190: 2462 3b3d 6197 cebe e063 10be cbbd 23bc
000001a0: eb7a 4c3d 15a9 03be 65fa b5be 6b65 9cbe
000001b0: a764 bf3d 5aee 97bd 4e78 b9be 0db3 65bd
000001c0: afc4 7f3d 58de 273d 08a3 86be b45d 47bf
000001d0: e5fa 303c c89e 23be c43b 76be f18e 88be
000001e0: 33ba bbbd c7c2 61bf dbb0 933d 0a6e 6b3d
000001f0: 8a16 e6be 35c7 f3be cb16 8bbe f2ab 89be
00000200: 206e 5abd 6636 533d 3063 023d 0306 49bf
00000210: 7993 07be 52cf 20bd 7d2a 7ebe 32ac 19be
00000220: 1cd2 22be adff 243d 4789 e7bc 0b16 36be
00000230: 27e7 a2be 8498 23be f5eb 8ebe 9907 a8be
00000240: 9f5f 19be 00b7 a6be 0ba7 81bd 8dc6 2bbd
00000250: 303f 4fbe b627 1abb df09 52bd 8755 c4bd
00000260: 7b36 5c3d 387c c7bc a20d 0cbf fc2a acbe
00000270: e48c 4dbe eb6c 93bc e654 13be 7bc8 193e
00000280: 823e 9ebd 13e4 123d 8752 48bd a5f3 12be
00000290: ab49 08bf 37cd 883d c244 89be 4242 d33c
000002a0: 82cc e4be 4d47 54be 4886 96bd 0119 97be
000002b0: d7f3 23be cbb0 103c c49e bbbd f05c f93d
000002c0: 87fb 6fbe 84f1 8abe 114b 873d 5900 1ebc
000002d0: 85bb 1c3e 12de f93c 73cb 623d 09a0 243a
000002e0: 2d36 96bd 2a03 8bbe 710a 43bc 6827 acbe
000002f0: 8f5e 493d 03f8 83be 66e3 7ebe 59fc 00be
00000300: b3fe cabd 52ce 32be 3931 12be 4b2a d3bd
00000310: 7eb7 5abe 613b 433e 3937 27bc 40ad 32be
00000320: cf0f 8a3d 2095 dcbc 3f22 ec3d b2d1 a2bd
00000330: 0531 e2be dc2f b3be da69 d73d bce1 13bd
00000340: 1d03 2cbe 2417 03be c408 003e ff6e c23c
00000350: 4ecc b3be eab6 33be 3cf7 babe 25e5 41be
00000360: 6b5b 70bf 36f5 d5bd 3ff1 3cbb 5fb5 d0be
00000370: 686a 77be 5391 c4be 0b16 adbd 5785 2dbe
00000380: 5de1 b03d 1f40 4d3a d86f 31be dae6 bcbe
00000390: efc7 d73d f9f3 b1bd f75e 22be f1be e93d
000003a0: 664f 87bd 9fa9 b1be 8fc0 43be 9b6e 56be
000003b0: 480a be3d 96a4 85be 96ce 87bc 01a0 20bd
000003c0: a4d7 dcbe 46a2 cebd 830f 8e3d b2cc 2ebd
000003d0: b43d b9be b4e3 41be 6aa2 15be 28d3 583d
000003e0: 931a 97be 1665 da3d 0cf1 13be b324 023d
000003f0: 5f81 d0be 8b87 e3be 6a28 e2bb ed79 1fbe
-0.20076339 0.12543882 0.09526739 0.09343513 0.07718831 -0.16212715 -0.35924163 0.037436645
-0.54099387 -0.21386626 0.03254822 -0.08114619 -0.20735729 0.0031208633 -0.17088181 -0.6055501
-0.13776298 -0.15635967 -0.04313658 -0.12268446 -0.1765914 -0.46630904 -0.5054925 0.039099436
0.13213937 -0.4289369 -0.32638144 -0.13972634 -0.18811014 -0.35943633 0.09054853 -0.03529817
-0.38892135 -0.4425317 -0.038636226 -0.35037264 -0.3785169 -0.124881506 -0.18151471 -0.438427
-0.079595305 0.10059107 0.060236815 0.17879081 -0.16594116 -0.031006532 0.029690465 -0.08837851
-0.82842237 0.035696466 -0.11745151 -0.13552333 -0.4613057 -0.58616626 -0.035480473 -0.35085955
-0.012147615 -0.10770729 0.026962552 -0.059161946 -0.32086238 -0.052114673 -0.0038558724 -0.183931
-0.093613446 -0.4371087 0.14204562 0.02639437 -0.38986373 -0.4034152 0.11957546 -0.5385698
0.027481526 -0.136946 -0.41006523 -0.30726254 -0.3761244 0.050787542 -0.3565296 -0.033025928
-0.18962699 -0.10190589 0.04867852 -0.21364973 0.028388595 -0.23970506 -0.45198444 0.014704068
-0.25527534 -0.20072743 0.017350106 -0.33109698 -0.09373438 -0.3385345 0.0077054277 -0.2986845
-0.15166117 0.08400193 -0.30447286 0.12757477 0.04574789 -0.40349868 -0.141006 -0.009993981
0.04992191 -0.12857468 -0.35542598 -0.30546126 0.0934537 -0.07418509 -0.36224598 -0.05607896
0.06244343 0.040983528 -0.26296258 -0.77877355 0.010802005 -0.15978539 -0.24046236 -0.26671556
-0.09166374 -0.8818783 0.07211467 0.05747799 -0.4493907 -0.4761292 -0.27165827 -0.26888996
-0.05332768 0.05156555 0.031832874 -0.785248 -0.1323985 -0.039260216 -0.24820895 -0.15007094
-0.15900463 0.040282894 -0.028263701 -0.17781846 -0.3181698 -0.15976149 -0.27914396 -0.32818297
-0.14977883 -0.32561493 -0.06330689 -0.0419374 -0.20238948 -0.0023522205 -0.051278945 -0.095866255
0.053762894 -0.024351224 -0.547083 -0.33626544 -0.20073277 -0.017996272 -0.14387855 0.15017883
-0.07726766 0.03586204 -0.04890683 -0.14350756 -0.5323741 0.066797666 -0.2681027 0.02578843
-0.44687277 -0.20730324 -0.07349831 -0.29511264 -0.16010986 0.008831213 -0.091611415 0.121759295
-0.23435794 -0.27137387 0.06606115 -0.009643638 0.15305908 0.0305014 0.055369806 0.00062799506
-0.07334552 -0.2715085 -0.011904345 -0.33623815 0.049162444 -0.25775155 -0.24891433 -0.12596263
-0.09911861 -0.17461517 -0.1427659 -0.10310801 -0.21359059 0.1906562 -0.010206037 -0.17448902
0.067412965 -0.026926577 0.115299694 -0.079501525 -0.44178024 -0.3499745 0.105182365 -0.03610395
-0.16798063 -0.12801796 0.12503344 0.023734568 -0.3511681 -0.17550245 -0.3651675 -0.18935068
-0.9388949 -0.10447161 -0.0028830317 -0.40763375 -0.24161685 -0.38392124 -0.0845147 -0.16945396
0.08636735 0.0007829684 -0.17327821 -0.36894876 0.10536181 -0.08689112 -0.15856539 0.11413372
-0.06606941 -0.34699723 -0.19116424 -0.2094063 0.09279305 -0.26102132 -0.016578 -0.03921509
-0.4313327 -0.10089545 0.069365524 -0.04267568 -0.36179888 -0.18934518 -0.14612737 0.05293575
-0.29512462 0.10663812 -0.14447421 0.03177328 -0.40723702 -0.4443935 -0.0069017904 -0.15573855

output.fc.bias f4 [10]
00000000: 309d 9abd 7150 aa3d b034 9ebc 0418 293e
00000010: a011 f8bd 89ce 62be a853 38be cf2d b2bd
00000020: ec83 5f3e 7d94 b6bd
-0.075495124 0.08316124 -0.019312233 0.16513067 -0.12112737 -0.221491 -0.18000662 -0.087001435
0.21827668 -0.08915041
